Model: "rsna_federated_cnn"
┏━━━━━━━━━━━━━━━━━━━━━━━━━━━━━━━━┳━━━━━━━━━━━━━━━━━━━━━━━━┳━━━━━━━━━━━━━━┓
┃ Layer (type)                   ┃ Output Shape           ┃      Param # ┃
┡━━━━━━━━━━━━━━━━━━━━━━━━━━━━━━━━╇━━━━━━━━━━━━━━━━━━━━━━━━╇━━━━━━━━━━━━━━┩
│ chest_xray (InputLayer)        │ (None, 128, 128, 1)    │            0 │
├────────────────────────────────┼────────────────────────┼──────────────┤
│ training_augmentation          │ (None, 128, 128, 1)    │            0 │
│ (Sequential)                   │                        │              │
├────────────────────────────────┼────────────────────────┼──────────────┤
│ conv2d (Conv2D)                │ (None, 128, 128, 32)   │          288 │
├────────────────────────────────┼────────────────────────┼──────────────┤
│ batch_normalization            │ (None, 128, 128, 32)   │          128 │
│ (BatchNormalization)           │                        │              │
├────────────────────────────────┼────────────────────────┼──────────────┤
│ re_lu (ReLU)                   │ (None, 128, 128, 32)   │            0 │
├────────────────────────────────┼────────────────────────┼──────────────┤
│ max_pooling2d (MaxPooling2D)   │ (None, 64, 64, 32)     │            0 │
├────────────────────────────────┼────────────────────────┼──────────────┤
│ conv2d_1 (Conv2D)              │ (None, 64, 64, 64)     │       18,432 │
├────────────────────────────────┼────────────────────────┼──────────────┤
│ batch_normalization_1          │ (None, 64, 64, 64)     │          256 │
│ (BatchNormalization)           │                        │              │
├────────────────────────────────┼────────────────────────┼──────────────┤
│ re_lu_1 (ReLU)                 │ (None, 64, 64, 64)     │            0 │
├────────────────────────────────┼────────────────────────┼──────────────┤
│ max_pooling2d_1 (MaxPooling2D) │ (None, 32, 32, 64)     │            0 │
├────────────────────────────────┼────────────────────────┼──────────────┤
│ conv2d_2 (Conv2D)              │ (None, 32, 32, 128)    │       73,728 │
├────────────────────────────────┼────────────────────────┼──────────────┤
│ batch_normalization_2          │ (None, 32, 32, 128)    │          512 │
│ (BatchNormalization)           │                        │              │
├────────────────────────────────┼────────────────────────┼──────────────┤
│ re_lu_2 (ReLU)                 │ (None, 32, 32, 128)    │            0 │
├────────────────────────────────┼────────────────────────┼──────────────┤
│ max_pooling2d_2 (MaxPooling2D) │ (None, 16, 16, 128)    │            0 │
├────────────────────────────────┼────────────────────────┼──────────────┤
│ conv2d_3 (Conv2D)              │ (None, 16, 16, 256)    │      294,912 │
├────────────────────────────────┼────────────────────────┼──────────────┤
│ batch_normalization_3          │ (None, 16, 16, 256)    │        1,024 │
│ (BatchNormalization)           │                        │              │
├────────────────────────────────┼────────────────────────┼──────────────┤
│ re_lu_3 (ReLU)                 │ (None, 16, 16, 256)    │            0 │
├────────────────────────────────┼────────────────────────┼──────────────┤
│ global_average_pooling2d       │ (None, 256)            │            0 │
│ (GlobalAveragePooling2D)       │                        │              │
├────────────────────────────────┼────────────────────────┼──────────────┤
│ dropout (Dropout)              │ (None, 256)            │            0 │
├────────────────────────────────┼────────────────────────┼──────────────┤
│ opacity_probability (Dense)    │ (None, 1)              │          257 │
└────────────────────────────────┴────────────────────────┴──────────────┘
 Total params: 389,537 (1.49 MB)
 Trainable params: 388,577 (1.48 MB)
 Non-trainable params: 960 (3.75 KB)

